Model: "sequential_1"
_________________________________________________________________
Layer (type)                 Output Shape              Param #   
=================================================================
embedding_1 (Embedding)      (None, 7948, 128)         119040    
_________________________________________________________________
dropout_1 (Dropout)          (None, 7948, 128)         0         
_________________________________________________________________
bidirectional_1 (Bidirection (None, 7948, 400)         526400    
_________________________________________________________________
time_distributed_1 (TimeDist (None, 7948, 32)          12832     
_________________________________________________________________
crf_1 (CRF)                  (None, 7948, 32)          2144      
=================================================================
Total params: 660,416
Trainable params: 660,416
Non-trainable params: 0
_________________________________________________________________
D:\Anaconda3\envs\deal_contact_new_env\lib\site-packages\keras_contrib\layers\crf.py:346: UserWarning: CRF.loss_function is deprecated and it might be removed in the future. Please use losses.crf_loss instead.
…
